{"format": "torch", "nodes": [{"name": "conv1", "id": 2950305237872, "class_name": "_quadConv(\n  (conv1): Conv2d(1, 15, kernel_size=(3, 3), stride=(1, 1), padding=(1, 1))\n  (conv2): Conv2d(1, 15, kernel_size=(3, 3), stride=(1, 1), padding=(1, 1))\n  (conv3): Conv2d(1, 15, kernel_size=(3, 3), stride=(1, 1), padding=(1, 1))\n)", "parameters": [["conv1.weight", [15, 1, 3, 3]], ["conv1.bias", [15]], ["conv2.weight", [15, 1, 3, 3]], ["conv2.bias", [15]], ["conv3.weight", [15, 1, 3, 3]], ["conv3.bias", [15]]], "output_shape": [[128, 15, 64, 64]], "num_parameters": [135, 15, 135, 15, 135, 15]}, {"name": "conv2", "id": 2950256359800, "class_name": "_quadConv(\n  (conv1): Conv2d(15, 15, kernel_size=(3, 3), stride=(1, 1), padding=(1, 1))\n  (conv2): Conv2d(15, 15, kernel_size=(3, 3), stride=(1, 1), padding=(1, 1))\n  (conv3): Conv2d(15, 15, kernel_size=(3, 3), stride=(1, 1), padding=(1, 1))\n)", "parameters": [["conv1.weight", [15, 15, 3, 3]], ["conv1.bias", [15]], ["conv2.weight", [15, 15, 3, 3]], ["conv2.bias", [15]], ["conv3.weight", [15, 15, 3, 3]], ["conv3.bias", [15]]], "output_shape": [[128, 15, 64, 64]], "num_parameters": [2025, 15, 2025, 15, 2025, 15]}, {"name": "conv3", "id": 2950305238376, "class_name": "_quadConv(\n  (conv1): Conv2d(15, 15, kernel_size=(3, 3), stride=(1, 1), padding=(1, 1))\n  (conv2): Conv2d(15, 15, kernel_size=(3, 3), stride=(1, 1), padding=(1, 1))\n  (conv3): Conv2d(15, 15, kernel_size=(3, 3), stride=(1, 1), padding=(1, 1))\n)", "parameters": [["conv1.weight", [15, 15, 3, 3]], ["conv1.bias", [15]], ["conv2.weight", [15, 15, 3, 3]], ["conv2.bias", [15]], ["conv3.weight", [15, 15, 3, 3]], ["conv3.bias", [15]]], "output_shape": [[128, 15, 64, 64]], "num_parameters": [2025, 15, 2025, 15, 2025, 15]}, {"name": "conv4", "id": 2950305238600, "class_name": "_quadConv(\n  (conv1): Conv2d(15, 15, kernel_size=(3, 3), stride=(1, 1), padding=(1, 1))\n  (conv2): Conv2d(15, 15, kernel_size=(3, 3), stride=(1, 1), padding=(1, 1))\n  (conv3): Conv2d(15, 15, kernel_size=(3, 3), stride=(1, 1), padding=(1, 1))\n)", "parameters": [["conv1.weight", [15, 15, 3, 3]], ["conv1.bias", [15]], ["conv2.weight", [15, 15, 3, 3]], ["conv2.bias", [15]], ["conv3.weight", [15, 15, 3, 3]], ["conv3.bias", [15]]], "output_shape": [[128, 15, 64, 64]], "num_parameters": [2025, 15, 2025, 15, 2025, 15]}, {"name": "conv5", "id": 2950305238824, "class_name": "_quadConv(\n  (conv1): Conv2d(15, 15, kernel_size=(3, 3), stride=(1, 1))\n  (conv2): Conv2d(15, 15, kernel_size=(3, 3), stride=(1, 1))\n  (conv3): Conv2d(15, 15, kernel_size=(3, 3), stride=(1, 1))\n)", "parameters": [["conv1.weight", [15, 15, 3, 3]], ["conv1.bias", [15]], ["conv2.weight", [15, 15, 3, 3]], ["conv2.bias", [15]], ["conv3.weight", [15, 15, 3, 3]], ["conv3.bias", [15]]], "output_shape": [[128, 15, 62, 62]], "num_parameters": [2025, 15, 2025, 15, 2025, 15]}, {"name": "deconv5", "id": 2950325362760, "class_name": "_quadDeconv(\n  (conv1): ConvTranspose2d(15, 15, kernel_size=(3, 3), stride=(1, 1))\n  (conv2): ConvTranspose2d(15, 15, kernel_size=(3, 3), stride=(1, 1))\n  (conv3): ConvTranspose2d(15, 15, kernel_size=(3, 3), stride=(1, 1))\n)", "parameters": [["conv1.weight", [15, 15, 3, 3]], ["conv1.bias", [15]], ["conv2.weight", [15, 15, 3, 3]], ["conv2.bias", [15]], ["conv3.weight", [15, 15, 3, 3]], ["conv3.bias", [15]]], "output_shape": [[128, 15, 64, 64]], "num_parameters": [2025, 15, 2025, 15, 2025, 15]}, {"name": "deconv4", "id": 2950325362984, "class_name": "_quadDeconv(\n  (conv1): ConvTranspose2d(15, 15, kernel_size=(3, 3), stride=(1, 1), padding=(1, 1))\n  (conv2): ConvTranspose2d(15, 15, kernel_size=(3, 3), stride=(1, 1), padding=(1, 1))\n  (conv3): ConvTranspose2d(15, 15, kernel_size=(3, 3), stride=(1, 1), padding=(1, 1))\n)", "parameters": [["conv1.weight", [15, 15, 3, 3]], ["conv1.bias", [15]], ["conv2.weight", [15, 15, 3, 3]], ["conv2.bias", [15]], ["conv3.weight", [15, 15, 3, 3]], ["conv3.bias", [15]]], "output_shape": [[128, 15, 64, 64]], "num_parameters": [2025, 15, 2025, 15, 2025, 15]}, {"name": "deconv3", "id": 2950325363208, "class_name": "_quadDeconv(\n  (conv1): ConvTranspose2d(15, 15, kernel_size=(3, 3), stride=(1, 1), padding=(1, 1))\n  (conv2): ConvTranspose2d(15, 15, kernel_size=(3, 3), stride=(1, 1), padding=(1, 1))\n  (conv3): ConvTranspose2d(15, 15, kernel_size=(3, 3), stride=(1, 1), padding=(1, 1))\n)", "parameters": [["conv1.weight", [15, 15, 3, 3]], ["conv1.bias", [15]], ["conv2.weight", [15, 15, 3, 3]], ["conv2.bias", [15]], ["conv3.weight", [15, 15, 3, 3]], ["conv3.bias", [15]]], "output_shape": [[128, 15, 64, 64]], "num_parameters": [2025, 15, 2025, 15, 2025, 15]}, {"name": "deconv2", "id": 2950325363432, "class_name": "_quadDeconv(\n  (conv1): ConvTranspose2d(15, 15, kernel_size=(3, 3), stride=(1, 1), padding=(1, 1))\n  (conv2): ConvTranspose2d(15, 15, kernel_size=(3, 3), stride=(1, 1), padding=(1, 1))\n  (conv3): ConvTranspose2d(15, 15, kernel_size=(3, 3), stride=(1, 1), padding=(1, 1))\n)", "parameters": [["conv1.weight", [15, 15, 3, 3]], ["conv1.bias", [15]], ["conv2.weight", [15, 15, 3, 3]], ["conv2.bias", [15]], ["conv3.weight", [15, 15, 3, 3]], ["conv3.bias", [15]]], "output_shape": [[128, 15, 64, 64]], "num_parameters": [2025, 15, 2025, 15, 2025, 15]}, {"name": "deconv1", "id": 2950325363656, "class_name": "_quadDeconv(\n  (conv1): ConvTranspose2d(15, 1, kernel_size=(3, 3), stride=(1, 1), padding=(1, 1))\n  (conv2): ConvTranspose2d(15, 1, kernel_size=(3, 3), stride=(1, 1), padding=(1, 1))\n  (conv3): ConvTranspose2d(15, 1, kernel_size=(3, 3), stride=(1, 1), padding=(1, 1))\n)", "parameters": [["conv1.weight", [15, 1, 3, 3]], ["conv1.bias", [1]], ["conv2.weight", [15, 1, 3, 3]], ["conv2.bias", [1]], ["conv3.weight", [15, 1, 3, 3]], ["conv3.bias", [1]]], "output_shape": [[128, 1, 64, 64]], "num_parameters": [135, 1, 135, 1, 135, 1]}], "edges": []}