{"format": "torch", "nodes": [{"name": "conv1", "id": 1935223161296, "class_name": "_quadConv(\n  (conv1): Conv2d(1, 15, kernel_size=(3, 3), stride=(1, 1), padding=(1, 1))\n  (conv2): Conv2d(1, 15, kernel_size=(3, 3), stride=(1, 1), padding=(1, 1))\n  (conv3): Conv2d(1, 15, kernel_size=(3, 3), stride=(1, 1), padding=(1, 1))\n)", "parameters": [["conv1.weight", [15, 1, 3, 3]], ["conv1.bias", [15]], ["conv2.weight", [15, 1, 3, 3]], ["conv2.bias", [15]], ["conv3.weight", [15, 1, 3, 3]], ["conv3.bias", [15]]], "output_shape": [[128, 15, 64, 64]], "num_parameters": [135, 15, 135, 15, 135, 15]}, {"name": "conv2", "id": 1935222298552, "class_name": "_quadConv(\n  (conv1): Conv2d(15, 15, kernel_size=(3, 3), stride=(1, 1), padding=(1, 1))\n  (conv2): Conv2d(15, 15, kernel_size=(3, 3), stride=(1, 1), padding=(1, 1))\n  (conv3): Conv2d(15, 15, kernel_size=(3, 3), stride=(1, 1), padding=(1, 1))\n)", "parameters": [["conv1.weight", [15, 15, 3, 3]], ["conv1.bias", [15]], ["conv2.weight", [15, 15, 3, 3]], ["conv2.bias", [15]], ["conv3.weight", [15, 15, 3, 3]], ["conv3.bias", [15]]], "output_shape": [[128, 15, 64, 64]], "num_parameters": [2025, 15, 2025, 15, 2025, 15]}, {"name": "conv3", "id": 1935223705048, "class_name": "_quadConv(\n  (conv1): Conv2d(15, 15, kernel_size=(3, 3), stride=(1, 1), padding=(1, 1))\n  (conv2): Conv2d(15, 15, kernel_size=(3, 3), stride=(1, 1), padding=(1, 1))\n  (conv3): Conv2d(15, 15, kernel_size=(3, 3), stride=(1, 1), padding=(1, 1))\n)", "parameters": [["conv1.weight", [15, 15, 3, 3]], ["conv1.bias", [15]], ["conv2.weight", [15, 15, 3, 3]], ["conv2.bias", [15]], ["conv3.weight", [15, 15, 3, 3]], ["conv3.bias", [15]]], "output_shape": [[128, 15, 64, 64]], "num_parameters": [2025, 15, 2025, 15, 2025, 15]}, {"name": "conv4", "id": 1935223705272, "class_name": "_quadConv(\n  (conv1): Conv2d(15, 15, kernel_size=(3, 3), stride=(1, 1), padding=(1, 1))\n  (conv2): Conv2d(15, 15, kernel_size=(3, 3), stride=(1, 1), padding=(1, 1))\n  (conv3): Conv2d(15, 15, kernel_size=(3, 3), stride=(1, 1), padding=(1, 1))\n)", "parameters": [["conv1.weight", [15, 15, 3, 3]], ["conv1.bias", [15]], ["conv2.weight", [15, 15, 3, 3]], ["conv2.bias", [15]], ["conv3.weight", [15, 15, 3, 3]], ["conv3.bias", [15]]], "output_shape": [[128, 15, 64, 64]], "num_parameters": [2025, 15, 2025, 15, 2025, 15]}, {"name": "conv5", "id": 1935223705496, "class_name": "_quadConv(\n  (conv1): Conv2d(15, 15, kernel_size=(3, 3), stride=(1, 1))\n  (conv2): Conv2d(15, 15, kernel_size=(3, 3), stride=(1, 1))\n  (conv3): Conv2d(15, 15, kernel_size=(3, 3), stride=(1, 1))\n)", "parameters": [["conv1.weight", [15, 15, 3, 3]], ["conv1.bias", [15]], ["conv2.weight", [15, 15, 3, 3]], ["conv2.bias", [15]], ["conv3.weight", [15, 15, 3, 3]], ["conv3.bias", [15]]], "output_shape": [[128, 15, 62, 62]], "num_parameters": [2025, 15, 2025, 15, 2025, 15]}, {"name": "deconv5", "id": 1935243808952, "class_name": "_quadDeconv(\n  (conv1): ConvTranspose2d(15, 15, kernel_size=(3, 3), stride=(1, 1))\n  (conv2): ConvTranspose2d(15, 15, kernel_size=(3, 3), stride=(1, 1))\n  (conv3): ConvTranspose2d(15, 15, kernel_size=(3, 3), stride=(1, 1))\n)", "parameters": [["conv1.weight", [15, 15, 3, 3]], ["conv1.bias", [15]], ["conv2.weight", [15, 15, 3, 3]], ["conv2.bias", [15]], ["conv3.weight", [15, 15, 3, 3]], ["conv3.bias", [15]]], "output_shape": [[128, 15, 64, 64]], "num_parameters": [2025, 15, 2025, 15, 2025, 15]}, {"name": "deconv4", "id": 1935243809176, "class_name": "_quadDeconv(\n  (conv1): ConvTranspose2d(15, 15, kernel_size=(3, 3), stride=(1, 1), padding=(1, 1))\n  (conv2): ConvTranspose2d(15, 15, kernel_size=(3, 3), stride=(1, 1), padding=(1, 1))\n  (conv3): ConvTranspose2d(15, 15, kernel_size=(3, 3), stride=(1, 1), padding=(1, 1))\n)", "parameters": [["conv1.weight", [15, 15, 3, 3]], ["conv1.bias", [15]], ["conv2.weight", [15, 15, 3, 3]], ["conv2.bias", [15]], ["conv3.weight", [15, 15, 3, 3]], ["conv3.bias", [15]]], "output_shape": [[128, 15, 64, 64]], "num_parameters": [2025, 15, 2025, 15, 2025, 15]}, {"name": "deconv3", "id": 1935243809400, "class_name": "_quadDeconv(\n  (conv1): ConvTranspose2d(15, 15, kernel_size=(3, 3), stride=(1, 1), padding=(1, 1))\n  (conv2): ConvTranspose2d(15, 15, kernel_size=(3, 3), stride=(1, 1), padding=(1, 1))\n  (conv3): ConvTranspose2d(15, 15, kernel_size=(3, 3), stride=(1, 1), padding=(1, 1))\n)", "parameters": [["conv1.weight", [15, 15, 3, 3]], ["conv1.bias", [15]], ["conv2.weight", [15, 15, 3, 3]], ["conv2.bias", [15]], ["conv3.weight", [15, 15, 3, 3]], ["conv3.bias", [15]]], "output_shape": [[128, 15, 64, 64]], "num_parameters": [2025, 15, 2025, 15, 2025, 15]}, {"name": "deconv2", "id": 1935243809624, "class_name": "_quadDeconv(\n  (conv1): ConvTranspose2d(15, 15, kernel_size=(3, 3), stride=(1, 1), padding=(1, 1))\n  (conv2): ConvTranspose2d(15, 15, kernel_size=(3, 3), stride=(1, 1), padding=(1, 1))\n  (conv3): ConvTranspose2d(15, 15, kernel_size=(3, 3), stride=(1, 1), padding=(1, 1))\n)", "parameters": [["conv1.weight", [15, 15, 3, 3]], ["conv1.bias", [15]], ["conv2.weight", [15, 15, 3, 3]], ["conv2.bias", [15]], ["conv3.weight", [15, 15, 3, 3]], ["conv3.bias", [15]]], "output_shape": [[128, 15, 64, 64]], "num_parameters": [2025, 15, 2025, 15, 2025, 15]}, {"name": "deconv1", "id": 1935243809848, "class_name": "_quadDeconv(\n  (conv1): ConvTranspose2d(15, 1, kernel_size=(3, 3), stride=(1, 1), padding=(1, 1))\n  (conv2): ConvTranspose2d(15, 1, kernel_size=(3, 3), stride=(1, 1), padding=(1, 1))\n  (conv3): ConvTranspose2d(15, 1, kernel_size=(3, 3), stride=(1, 1), padding=(1, 1))\n)", "parameters": [["conv1.weight", [15, 1, 3, 3]], ["conv1.bias", [1]], ["conv2.weight", [15, 1, 3, 3]], ["conv2.bias", [1]], ["conv3.weight", [15, 1, 3, 3]], ["conv3.bias", [1]]], "output_shape": [[128, 1, 64, 64]], "num_parameters": [135, 1, 135, 1, 135, 1]}], "edges": []}